…
... # Input, 4 hidden layers each with 50 neurons, output
>>> modelA = Sequential()
>>> modelA.add(Dense(50, input_shape=(p,), activation = 'relu')) 
>>> modelA.add(Dense(50, activation = 'relu'))
>>> modelA.add(Dense(50, activation = 'relu'))
>>> modelA.add(Dense(50, activation = 'relu'))
>>> modelA.add(Dense(1))
>>> 
>>> # See that we set the model up correctly
... modelA.summary()
Model: "sequential"
_________________________________________________________________
 Layer (type)                Output Shape              Param #   
=================================================================
 dense (Dense)               (None, 50)                550       
                                                                 
 dense_1 (Dense)             (None, 50)                2550      
                                                                 
 dense_2 (Dense)             (None, 50)                2550      
                                                                 
 dense_3 (Dense)             (None, 50)                2550      
                                                                 
 dense_4 (Dense)             (None, 1)                 51        
                                                                 
=================================================================
Total params: 8251 (32.23 KB)
Trainable params: 8251 (32.23 KB)
Non-trainable params: 0 (0.00 Byte)
_________________________________________________________________
>>> 
>>> # Set some fitting options
... modelA.compile(loss='mse', optimizer='rmsprop')
>>> 
>>> # Fit the model, verbose = 0 turns off the display of each iteration
…
>>> modelB.add(Dense(50, input_shape=(p,), activation = 'relu')) 
>>> modelB.add(Dropout(.5))
>>> modelB.add(Dense(50, activation = 'relu'))
>>> modelB.add(Dropout(.5))
>>> modelB.add(Dense(50, activation = 'relu'))
>>> modelB.add(Dropout(.5))
>>> modelB.add(Dense(50, activation = 'relu'))
>>> modelB.add(Dropout(.5))
>>> modelB.add(Dense(1))
>>> 
>>> # See that we set the model up correctly
... modelB.summary()
Model: "sequential_1"
_________________________________________________________________
 Layer (type)                Output Shape              Param #   
=================================================================
 dense_5 (Dense)             (None, 50)                550       
                                                                 
 dropout (Dropout)           (None, 50)                0         
                                                                 
 dense_6 (Dense)             (None, 50)                2550      
                                                                 
 dropout_1 (Dropout)         (None, 50)                0         
                                                                 
 dense_7 (Dense)             (None, 50)                2550      
                                                                 
 dropout_2 (Dropout)         (None, 50)                0         
                                                                 
 dense_8 (Dense)             (None, 50)                2550      
                                                                 
 dropout_3 (Dropout)         (None, 50)                0         
                                                                 
 dense_9 (Dense)             (None, 1)                 51        
                                                                 
=================================================================
Total params: 8251 (32.23 KB)
Trainable params: 8251 (32.23 KB)
Non-trainable params: 0 (0.00 Byte)
_________________________________________________________________
>>> 
>>> # Set some fitting options
... modelB.compile(loss='mse', optimizer='rmsprop')
>>> 
>>> # Fit the model, verbose = 0 turns off the display of each iteration
…
